…
p_momentum=0.8, warmup_bias_lr=0.1, box=7.5, cls=0.5, dfl=1.5, pose=12.0, kobj=1.0, label_smoothing=0.0, nbs=64, hsv_h=0.015, hsv_s=0.7, hsv_v=0.4, degrees=0.0, translate=0.1, scale=0.5, shear=0.0, perspective=0.0, flipud=0.0, fliplr=0.5, bgr=0.0, mosaic=1.0, mixup=0.0, copy_paste=0.0, auto_augment=randaugment, erasing=0.4, crop_fraction=1.0, cfg=None, tracker=botsort.yaml, save_dir=yolov3_project/train_experiment
Overriding model.yaml nc=80 with nc=1

                   from  n    params  module                                       arguments
  0                  -1  1       928  ultralytics.nn.modules.conv.Conv             [3, 32, 3, 1]
  1                  -1  1     18560  ultralytics.nn.modules.conv.Conv             [32, 64, 3, 2]
  2                  -1  1     37056  ultralytics.nn.modules.block.Bottleneck      [64, 64]
  3                  -1  1     73984  ultralytics.nn.modules.conv.Conv             [64, 128, 3, 2]
  4                  -1  2    295680  ultralytics.nn.modules.block.Bottleneck      [128, 128]
  5                  -1  1    295424  ultralytics.nn.modules.conv.Conv             [128, 256, 3, 2]
  6                  -1  8   4724736  ultralytics.nn.modules.block.Bottleneck      [256, 256]
  7                  -1  1   1180672  ultralytics.nn.modules.conv.Conv             [256, 512, 3, 2]
  8                  -1  8  18886656  ultralytics.nn.modules.block.Bottleneck      [512, 512]
  9                  -1  1   4720640  ultralytics.nn.modules.conv.Conv             [512, 1024, 3, 2]
 10                  -1  4  37761024  ultralytics.nn.modules.block.Bottleneck      [1024, 1024]
 11                  -1  1   9440256  ultralytics.nn.modules.block.Bottleneck      [1024, 1024, False]
 12                  -1  1    525312  ultralytics.nn.modules.conv.Conv             [1024, 512, 1, 1]
 13                  -1  1   4720640  ultralytics.nn.modules.conv.Conv             [512, 1024, 3, 1]
 14                  -1  1    525312  ultralytics.nn.modules.conv.Conv             [1024, 512, 1, 1]
 15                  -1  1   4720640  ultralytics.nn.modules.conv.Conv             [512, 1024, 3, 1]
 16                  -2  1    131584  ultralytics.nn.modules.conv.Conv             [512, 256, 1, 1]
 17                  -1  1         0  torch.nn.modules.upsampling.Upsample         [None, 2, 'nearest']
 18             [-1, 8]  1         0  ultralytics.nn.modules.conv.Concat           [1]
 19                  -1  1   2950656  ultralytics.nn.modules.block.Bottleneck      [768, 512, False]
 20                  -1  1   2360832  ultralytics.nn.modules.block.Bottleneck      [512, 512, False]
 21                  -1  1    131584  ultralytics.nn.modules.conv.Conv             [512, 256, 1, 1]
 22                  -1  1   1180672  ultralytics.nn.modules.conv.Conv             [256, 512, 3, 1]
 23                  -2  1     33024  ultralytics.nn.modules.conv.Conv             [256, 128, 1, 1]
 24                  -1  1         0  torch.nn.modules.upsampling.Upsample         [None, 2, 'nearest']
 25             [-1, 6]  1         0  ultralytics.nn.modules.conv.Concat           [1]
 26                  -1  1    738048  ultralytics.nn.modules.block.Bottleneck      [384, 256, False]
 27                  -1  2   1181184  ultralytics.nn.modules.block.Bottleneck      [256, 256, False]
 28        [27, 22, 15]  1   7058131  ultralytics.nn.modules.head.Detect           [1, [256, 512, 1024]]
YOLOv3 summary: 310 layers, 103,693,235 parameters, 103,693,219 gradients, 283.0 GFLOPs

WARNING ⚠️ Comet installed but not initialized correctly, not logging this run. Comet.ml requires an API key. Please provide as the first argument to Experiment(api_key) or as an environment variable named COMET_API_KEY
TensorBoard: Start with 'tensorboard --logdir yolov3_project/train_experiment', view at http://localhost:6006/
…
