…
_bias_lr=0.1, box=7.5, cls=0.5, dfl=1.5, pose=12.0, kobj=1.0, label_smoothing=0.0, nbs=64, hsv_h=0.015, hsv_s=0.7, hsv_v=0.4, degrees=0.0, translate=0.1, scale=0.5, shear=0.0, perspective=0.0, flipud=0.0, fliplr=0.5, bgr=0.0, mosaic=1.0, mixup=0.0, copy_paste=0.0, auto_augment=randaugment, erasing=0.4, crop_fraction=1.0, cfg=None, tracker=botsort.yaml, save_dir=yolov6_project/train_experiment
Overriding model.yaml nc=80 with nc=1
activation: nn.ReLU()

                   from  n    params  module                                       arguments
  0                  -1  1      1392  ultralytics.nn.modules.conv.Conv             [3, 48, 3, 2]
  1                  -1  1     41664  ultralytics.nn.modules.conv.Conv             [48, 96, 3, 2]
  2                  -1  4    332544  ultralytics.nn.modules.conv.Conv             [96, 96, 3, 1]
  3                  -1  1    166272  ultralytics.nn.modules.conv.Conv             [96, 192, 3, 2]
  4                  -1  8   2657280  ultralytics.nn.modules.conv.Conv             [192, 192, 3, 1]
  5                  -1  1    664320  ultralytics.nn.modules.conv.Conv             [192, 384, 3, 2]
  6                  -1 12  15934464  ultralytics.nn.modules.conv.Conv             [384, 384, 3, 1]
  7                  -1  1   1991808  ultralytics.nn.modules.conv.Conv             [384, 576, 3, 2]
  8                  -1  4  11948544  ultralytics.nn.modules.conv.Conv             [576, 576, 3, 1]
  9                  -1  1    831168  ultralytics.nn.modules.block.SPPF            [576, 576, 5]
 10                  -1  1    110976  ultralytics.nn.modules.conv.Conv             [576, 192, 1, 1]
 11                  -1  1    147648  torch.nn.modules.conv.ConvTranspose2d        [192, 192, 2, 2, 0]
 12             [-1, 6]  1         0  ultralytics.nn.modules.conv.Concat           [1]
 13                  -1  1    995712  ultralytics.nn.modules.conv.Conv             [576, 192, 3, 1]
 14                  -1  6   1992960  ultralytics.nn.modules.conv.Conv             [192, 192, 3, 1]
 15                  -1  1     18624  ultralytics.nn.modules.conv.Conv             [192, 96, 1, 1]
 16                  -1  1     36960  torch.nn.modules.conv.ConvTranspose2d        [96, 96, 2, 2, 0]
 17             [-1, 4]  1         0  ultralytics.nn.modules.conv.Concat           [1]
 18                  -1  1    249024  ultralytics.nn.modules.conv.Conv             [288, 96, 3, 1]
 19                  -1  6    498816  ultralytics.nn.modules.conv.Conv             [96, 96, 3, 1]
 20                  -1  1     83136  ultralytics.nn.modules.conv.Conv             [96, 96, 3, 2]
 21            [-1, 15]  1         0  ultralytics.nn.modules.conv.Concat           [1]
 22                  -1  1    332160  ultralytics.nn.modules.conv.Conv             [192, 192, 3, 1]
 23                  -1  6   1992960  ultralytics.nn.modules.conv.Conv             [192, 192, 3, 1]
 24                  -1  1    332160  ultralytics.nn.modules.conv.Conv             [192, 192, 3, 2]
 25            [-1, 10]  1         0  ultralytics.nn.modules.conv.Concat           [1]
 26                  -1  1   1327872  ultralytics.nn.modules.conv.Conv             [384, 384, 3, 1]
 27                  -1  6   7967232  ultralytics.nn.modules.conv.Conv             [384, 384, 3, 1]
 28        [19, 23, 27]  1   1341811  ultralytics.nn.modules.head.Detect           [1, [96, 192, 384]]
YOLOv6m summary: 273 layers, 51,997,507 parameters, 51,997,491 gradients, 161.5 GFLOPs

WARNING ⚠️ Comet installed but not initialized correctly, not logging this run. Comet.ml requires an API key. Please provide as the first argument to Experiment(api_key) or as an environment variable named COMET_API_KEY
TensorBoard: Start with 'tensorboard --logdir yolov6_project/train_experiment', view at http://localhost:6006/
…
