…
_momentum=0.8, warmup_bias_lr=0.1, box=7.5, cls=0.5, dfl=1.5, pose=12.0, kobj=1.0, label_smoothing=0.0, nbs=64, hsv_h=0.015, hsv_s=0.7, hsv_v=0.4, degrees=0.0, translate=0.1, scale=0.5, shear=0.0, perspective=0.0, flipud=0.0, fliplr=0.5, bgr=0.0, mosaic=1.0, mixup=0.0, copy_paste=0.0, auto_augment=randaugment, erasing=0.4, crop_fraction=1.0, cfg=None, tracker=botsort.yaml, save_dir=yolov8_project/train_experiment2
Overriding model.yaml nc=80 with nc=1

                   from  n    params  module                                       arguments
  0                  -1  1       928  ultralytics.nn.modules.conv.Conv             [3, 32, 3, 2]
  1                  -1  1     18560  ultralytics.nn.modules.conv.Conv             [32, 64, 3, 2]
  2                  -1  1     31104  ultralytics.nn.modules.block.ELAN1           [64, 64, 64, 32]
  3                  -1  1     73984  ultralytics.nn.modules.block.AConv           [64, 128]
  4                  -1  1    258432  ultralytics.nn.modules.block.RepNCSPELAN4    [128, 128, 128, 64, 3]
  5                  -1  1    221568  ultralytics.nn.modules.block.AConv           [128, 192]
  6                  -1  1    579648  ultralytics.nn.modules.block.RepNCSPELAN4    [192, 192, 192, 96, 3]
  7                  -1  1    442880  ultralytics.nn.modules.block.AConv           [192, 256]
  8                  -1  1   1028864  ultralytics.nn.modules.block.RepNCSPELAN4    [256, 256, 256, 128, 3]
  9                  -1  1    164608  ultralytics.nn.modules.block.SPPELAN         [256, 256, 128]
 10                  -1  1         0  torch.nn.modules.upsampling.Upsample         [None, 2, 'nearest']
 11             [-1, 6]  1         0  ultralytics.nn.modules.conv.Concat           [1]
 12                  -1  1    628800  ultralytics.nn.modules.block.RepNCSPELAN4    [448, 192, 192, 96, 3]
 13                  -1  1         0  torch.nn.modules.upsampling.Upsample         [None, 2, 'nearest']
 14             [-1, 4]  1         0  ultralytics.nn.modules.conv.Concat           [1]
 15                  -1  1    283008  ultralytics.nn.modules.block.RepNCSPELAN4    [320, 128, 128, 64, 3]
 16                  -1  1    110784  ultralytics.nn.modules.block.AConv           [128, 96]
 17            [-1, 12]  1         0  ultralytics.nn.modules.conv.Concat           [1]
 18                  -1  1    598080  ultralytics.nn.modules.block.RepNCSPELAN4    [288, 192, 192, 96, 3]
 19                  -1  1    221440  ultralytics.nn.modules.block.AConv           [192, 128]
 20             [-1, 9]  1         0  ultralytics.nn.modules.conv.Concat           [1]
 21                  -1  1   1061632  ultralytics.nn.modules.block.RepNCSPELAN4    [384, 256, 256, 128, 3]
 22        [15, 18, 21]  1   1563475  ultralytics.nn.modules.head.Detect           [1, [128, 192, 256]]
YOLOv9s summary: 917 layers, 7,287,795 parameters, 7,287,779 gradients, 27.4 GFLOPs

Transferred 1333/1339 items from pretrained weights
WARNING ⚠️ Comet installed but not initialized correctly, not logging this run. Comet.ml requires an API key. Please provide as the first argument to Experiment(api_key) or as an environment variable named COMET_API_KEY
TensorBoard: Start with 'tensorboard --logdir yolov8_project/train_experiment2', view at http://localhost:6006/
…
